unet_best.pt (torch, 41688 bytes, 7 tensors)

encoder.0.weight f4 [16, 1, 3, 3]
00000000: a417 dbbd 03c6 523c b9de bdbd c24f f63e
00000010: fd4e d1bd 75ce 18be e87d c63e 21ff cabd
00000020: e132 85bd 3d64 883e 9e9a 703e dcb1 4a3e
00000030: 424a 473d 5d30 99bb 3bdb ef3d bd50 a5be
00000040: 4091 38be 22a5 693e 486c 2c3e 8125 143e
00000050: c0f6 a5be d541 6dbe e36e 923b 2b4a 6d3e
00000060: b373 193e 1fb4 2cbe 06f8 dabc bf7b 213d
00000070: 1848 513d f072 f73e 3855 91be 20b4 acbe
00000080: cc26 4e3c f8f4 a1bd fda0 96bd c8ca 313f
00000090: d5f0 a2be bf80 67bf 0d22 8dbf 0a59 013f
000000a0: 881d 553b 6fd1 083e 0acd 853c 6914 973d
000000b0: 5234 203d 59db 843d 16ed a5be 931a 8fbe
000000c0: 03a8 f6bd 6398 ba3d 7486 933e eae1 9e3e
000000d0: 22c6 323e 43f4 29bd c2b1 0a3f d0c0 833e
000000e0: 1cf7 213e c80c 9f3e 9e78 a4be b444 c5bd
000000f0: aa50 2e3d 582b 32be f3ce f6be cfad 5b3d
00000100: 7264 8dbe c837 b13e ba9b 63be 1e43 043e
00000110: bc80 1dbe f8f7 5abe 3bda b4be 108b a63e
00000120: ee7a 42be ba9f 4ebe c298 46be e5b5 66be
00000130: 998a 82be 3a33 debe a8ac 66be eacd 55be
00000140: 67bd e4be 7574 c03e 53fc 14be 53c4 3ebe
00000150: 466e 3abe 30a7 55be a144 8ebe ce5a 5d3d
00000160: a96e 6a3e ad6e 233c 6576 03bd cb8d 8e3e
00000170: 6738 52bd 488d f5ba ce08 82be c2a4 d93d
00000180: 3e92 743e 69bc e73d 572b 433e cbed 683e
00000190: bece eabf 510e c7bf 43e6 c9bb 038c 0bc0
000001a0: 3652 d5bf fbae 9b3e f4db 04c0 2ba1 fdbf
000001b0: b692 e3bd dcee 453e c511 2f3d 7f69 83be
000001c0: 7401 fe3d 7586 55bd dd7d 8abe b1fb 1d3e
000001d0: ce06 2a3e 4cf2 bfbe 0b36 a0be bcc8 53be
000001e0: 233f 3ebe 5afa b0bb a4a3 a33e 7b47 39bd
000001f0: cfc1 623e c030 abbd bb88 4d3e 38a7 473e
00000200: 8622 c23d e9e4 b6be ac23 79be da41 a1be
00000210: dd2d 28bc 4d15 653e 5ad8 0d3e 7f6e aebe
00000220: 9a52 04be 06ea 02bb 1162 65bc 5e48 e43a
00000230: 2776 d03e c59a b9be 07c3 e73a 39d6 703e
-0.106978685 0.0128645925 -0.092709966 0.48107725 -0.10220144 -0.14922507 0.38767934 -0.09911943
-0.06503845 0.26638976 0.23496482 0.1979441 0.048654802 -0.004674955 0.11711737 -0.3228816
-0.18024158 0.228169 0.16838181 0.14467432 -0.32414818 -0.23169644 0.004468785 0.23172824
0.14985542 -0.16865586 -0.026729595 0.039424654 0.051094145 0.48329878 -0.2838533 -0.33731174
0.012582492 -0.07908052 -0.07354925 0.69450045 -0.31824365 -0.90430826 -1.1026016 0.5052649
0.0032518823 0.13361143 0.016333122 0.0737694 0.039112397 0.0648715 -0.32407445 -0.27949962
-0.120437644 0.09111097 0.28813517 0.31031734 0.17458394 -0.04149271 0.54177487 0.25733042
0.15816921 0.3106444 -0.32123274 -0.09632245 0.042557396 -0.17399347 -0.48204765 0.053632554
-0.27615696 0.3461287 -0.22227374 0.12916228 -0.1538114 -0.21383655 -0.35322747 0.3252797
-0.18992206 -0.20178118 -0.1939421 -0.22530325 -0.25496367 -0.43398458 -0.225268 -0.20879331
-0.44675753 0.3758885 -0.14549379 -0.18629579 -0.18206128 -0.20864558 -0.27786735 0.054041676
0.22893776 0.009975118 -0.03209533 0.27842554 -0.05132332 -0.0018734122 -0.25397342 0.10627128
0.23883912 0.11315233 0.19059502 0.22746961 -1.8344343 -1.5551244 -0.0061614825 -2.1804206
-1.6665714 0.30406937 -2.0759249 -1.981481 -0.11111967 0.19329399 0.042741556 -0.25666425
0.12402621 -0.05213018 -0.2704915 0.15428044 0.16604158 -0.37489545 -0.31291232 -0.20682043
-0.18578772 -0.005400938 0.31960785 -0.045234185 0.22144245 -0.08358908 0.2007169 0.19497383
0.09479241 -0.3572152 -0.24330014 -0.31495553 -0.010264841 0.22371407 0.13852063 -0.34068677
-0.12922135 -0.0019975915 -0.014000432 0.0017416587 0.40715143 -0.36250892 0.0017682024 0.2351922

encoder.0.bias f4 [16]
00000000: 9b42 1c3d 1ff1 2ebb 78d0 1f3d 9b12 913c
00000010: 9eac 923d 1a53 7dbc 41b1 c53d 6ff8 013e
00000020: 8e82 4e3e 6e77 b83d d849 19bf 1d5c 173d
00000030: fb18 623e 1889 7f3e 546c 4b3b fc76 873d
0.038149457 -0.0026694012 0.03901717 0.017709067 0.0716183 -0.0154617075 0.09652949 0.12692426
0.2016699 0.090071544 -0.598783 0.03695308 0.22079842 0.24954641 0.003103991 0.06614491

encoder.2.weight f4 [32, 16, 3, 3]
00000000: c5ed 753d d327 b43d 8b35 2b3d fd19 363d
00000010: c09f 7dbd 6395 efbd 4d4e 283e 2e52 f43d
00000020: 0277 3dbd e000 dabd 39e7 873c 1a18 a93c
00000030: f3dc 9d3c cc38 083d 26f1 c8bc 2896 c4bd
00000040: 3898 0dbe adac 23be 5600 3fbe 6e4b 35be
00000050: 1bea 03be 8673 87bd 4671 14bd f1e5 0a3e
00000060: c589 c6bd 30fa f73d a16f bc3d 46ad 34be
00000070: ca49 e3bd 9bd7 dabd 5171 a13c 4fe9 473b
00000080: f7e1 a4bc 9a9f 823d ea1a 793a ccd4 78bd
00000090: 2308 52be a85f e6be 2022 bcbe 3083 433e
000000a0: 7466 923e c4a9 763e 02b3 863e ec82 173d
000000b0: b049 2bbe e046 5b3d e62c 83bd c664 283e
000000c0: f10e 9abe 66f3 afbe 5386 15be 5494 98bc
000000d0: ece3 98bc 22de 733d 0888 95bd dfa7 f8bb
000000e0: f8a1 26bd ee51 e83d eb2d 093e 9ca4 c23d
000000f0: aedc f9bd c964 67be 9ac8 69be ab8e 3abd
00000100: b35c 83bd 5492 cdbd 96b4 af3b 3cff 6d3c
00000110: 3be4 5d3d 2920 9e3b 9bff fbbc 68da cdbd
00000120: 3230 aabb 3606 a0bc 6077 963d d0b1 fabc
00000130: dfcd 41bd c0fc 073e 328f 96bd c2b6 333d
00000140: 4cb8 043d 7881 37be b5cd a4bd 2086 923e
00000150: bec0 883d b898 c53d af38 463e 6ba2 a33e
00000160: 5400 073e fb7a 033e 3aa9 99bd 73eb aa3d
00000170: 88eb 173d a681 bfba 3853 bc38 4e34 fb3c
00000180: 0440 893d 2aab c13d c942 e63d 30ed 50be
00000190: 4e81 d1be 891b 2abf 7ec3 6ebd 76df efbd
000001a0: 5cb0 29bf b56f 363e 65a0 49be c33b 14bf
000001b0: 20a2 98bd dad5 82bd 13e2 3c3d 69d9 3ebd
000001c0: d58c 023d 4dcb 3f3d b4e4 523b 5527 6a3d
000001d0: bba2 92bc 6046 62bd 1ede a9bd 7b67 ecbb
000001e0: d2af 11be ec66 cfbd 2ced 013e a07c a33c
000001f0: 2ef6 ec3d ea99 463e 2556 fa3d 4eb1 703e
00000200: 5398 9f3e 56ae 243e 6fdb 0b3e dea4 143e
00000210: 15e1 0d3e fe7d 203d 6200 193e 3e21 46bc
00000220: d196 0b3d c7b9 98bd 5053 01bf 2549 76be
00000230: 4cde 6abc 29b2 cfbd 56f2 b0bd 664c aebd
00000240: 301a 7e3d 3bb4 573e 3903 4c3e 7108 ab3d
00000250: 1a0e 563d 7f9c 993d 45c1 923e 2d47 313e
00000260: 1bae d03d c7d1 14bd 0217 1b3d 6608 3fbe
00000270: d2e6 76bd 2e25 403e df39 88bd 8ba3 23be
00000280: e685 c6bd 41e4 6abe 6aba 363e e803 573d
00000290: c0a8 d03b 637b 0f3e cd96 f6bd 094c c73d
000002a0: cc23 69bd 5814 41bd b168 023e ccb7 03bd
000002b0: 118d 32bd 8187 d7be 0ef1 85bd bf39 b13d
000002c0: c353 72be f56b 693d f1b1 e13b cb1b 90be
000002d0: 85e8 26bf 1073 143e ad13 8a3e c237 8ebe
000002e0: 2321 7a3d 3a1e ce3c c45a 003d 354f 7e3e
000002f0: 9dc0 423e d344 6bbe b5ff 8cbe d7a3 b2be
00000300: 2c46 48bd 8dd9 e1bd c92d 843d ba54 86be
00000310: 349b 2b3d 6daa b33d 6f19 d03d 3cfa b1bc
00000320: 16b1 68be af36 bcbc 082e 3c3e 5492 c53b
00000330: 8b8b 2ebe 2093 a1bc d6c6 5d3e 89ee 50be
00000340: 8048 9a3c d493 1ebe 5452 f2bc 397a a63d
00000350: e2f6 92be 232d 5abe a006 34be b5bd cdbe
00000360: dc11 24be 86ff c43d 64e4 a93e 83c4 8ebe
00000370: f93f 3cbe 38df 183e a983 07bf 9750 80be
00000380: e307 583e c151 8d3e f554 033e 071a fb3e
00000390: cdf5 123e b46d 3abb 3434 f73e 4c45 0e3e
000003a0: 2362 0a3e 8620 d03e 5a75 06be f0ea 39be
000003b0: 6661 87be e8bb 31be b71f f5bd e194 5cbe
000003c0: 0f4d 24be a3e0 75bd 0920 3abe b924 84bf
000003d0: 6296 31bf bbee cbbf beb0 87bf 3776 fdbe
000003e0: 4f98 b5bf 8348 96bf 6f74 fdbe e8fd c4bf
000003f0: 6e1c 803c 97db 943d 780d cd3d 553d 873d
0.060041208 0.08796658 0.04179911 0.044458378 -0.061919928 -0.11698415 0.1643612 0.11929737
-0.046256073 -0.10644698 0.016589748 0.020641375 0.019270396 0.03325729 -0.024529051 -0.095989525
-0.13827598 -0.1598384 -0.18652472 -0.17704555 -0.12882273 -0.06613831 -0.03624084 0.13564278
-0.09694246 0.12108266 0.09200979 -0.17644224 -0.110980585 -0.10685655 0.019707354 0.0030504053
-0.02012728 0.06378098 0.00095026067 -0.060749814 -0.20510916 -0.44994855 -0.36744785 0.19093013
0.2859379 0.24088198 0.26308447 0.03699009 -0.16727328 0.05353439 -0.06405048 0.16444692
-0.30089524 -0.34365386 -0.14602022 -0.018625416 -0.01866337 0.059538014 -0.073013365 -0.007588371
-0.04068181 0.11343752 0.13396423 0.09504053 -0.122002944 -0.2259704 -0.2283043 -0.045546215
-0.06414165 -0.100376755 0.0053621037 0.014526185 0.054172736 0.004825611 -0.03076153 -0.10051423
-0.0051937336 -0.019534212 0.07346988 -0.030602366 -0.047315475 0.1328001 -0.07351531 0.043875463
0.03240232 -0.17920482 -0.08047048 0.28617954 0.06677388 0.096482694 0.1935756 0.31959853
0.13183719 0.12839882 -0.075029805 0.083456896 0.037089854 -0.0014610782 8.980039e-05 0.03066459
0.06701663 0.09456475 0.11243207 -0.2040298 -0.40918964 -0.66448265 -0.058291905 -0.11712544
-0.6628473 0.1781605 -0.19690092 -0.5790369 -0.07452798 -0.06388445 0.04611404 -0.046594057
0.03187259 0.046824742 0.0032179775 0.057166416 -0.017899862 -0.055242896 -0.082943186 -0.0072144843
-0.14227226 -0.10127053 0.1268813 0.019956887 0.115703925 0.19394651 0.12223462 0.23505136
0.31170902 0.16082129 0.13657926 0.14516017 0.13855393 0.039182656 0.14941552 -0.0120928865
0.034079377 -0.07457309 -0.5051775 -0.2405134 -0.014335226 -0.10141403 -0.08639972 -0.085106656
0.062036693 0.21064846 0.19923104 0.083512194 0.052259542 0.075005524 0.28663078 0.17312308
0.10189458 -0.03633287 0.03786374 -0.18655547 -0.06027872 0.18764183 -0.06651663 -0.15980355
-0.09693508 -0.22938634 0.17844549 0.05249396 0.006367773 0.14011912 -0.12040482 0.097312994
-0.056918904 -0.047138542 0.12735249 -0.032157704 -0.043591563 -0.4209557 -0.06540118 0.08653592
-0.23664765 0.05698772 0.0068876673 -0.28146204 -0.65198547 0.14497018 0.26968136 -0.27776915
0.061066758 0.025160898 0.03133656 0.24834903 0.19018789 -0.22975473 -0.2753884 -0.34890625
-0.048895046 -0.11027823 0.06454045 -0.26236516 0.04189606 0.087727405 0.10161101 -0.021725766
-0.22723803 -0.022975294 0.18376935 0.0060294066 -0.17045419 -0.019723475 0.21657881 -0.20403494
0.018833399 -0.1548608 -0.029580273 0.08128781 -0.28703982 -0.21306281 -0.17580652 -0.40183797
-0.16022438 0.0961905 0.3318206 -0.27884302 -0.18383779 0.14928901 -0.5293527 -0.25061485
0.21096759 0.27601436 0.12825377 0.49043295 0.14351578 -0.0028446736 0.48282015 0.13893622
0.13513999 0.40649813 -0.13130704 -0.18156028 -0.26441497 -0.17356837 -0.1196894 -0.21541168
-0.1604502 -0.060028683 -0.18176283 -1.0323707 -0.6937009 -1.593223 -1.0600812 -0.49504253
-1.4187106 -1.1740879 -0.49502894 -1.5389986 0.015638556 0.07268446 0.100123346 0.06603495

encoder.2.bias f4 [32]
00000000: 6453 89bd 3d79 573d 8d95 d03d ccee a23c
00000010: dc4a 7a3d 56ad f73c 5e17 9cbd f7d0 f43d
00000020: 2c23 233e 80ee 013e 8ed1 f43d 0fa8 283c
00000030: badd 283e 5ae5 df3d dfc2 ffbc d7f5 d13d
00000040: 3d5e 973d 0462 86be 7d73 cabc b1a2 2ebf
00000050: 3953 02bd 6d14 e93d 8ece 86bc 1964 e0bc
00000060: c906 9e3d f9be 9fbd 7c52 9b3d 1278 2b3e
00000070: 5237 5a3a 1c6a bb3d 5471 d33d 593e 343d
-0.067053586 0.052605856 0.101847745 0.019889258 0.061106548 0.03023402 -0.076216444 0.119539194
0.15931386 0.12688637 0.11954032 0.010293975 0.16490832 0.10932417 -0.031220851 0.10251968
0.073910214 -0.26246655 -0.024713272 -0.68217 -0.03181765 0.11380849 -0.016455915 -0.02739148
0.07716138 -0.07800097 0.07584092 0.16745022 0.00083242834 0.09151098 0.1032435 0.04400477

decoder.0.weight f4 [16, 32, 3, 3]
00000000: fd9c cd3d 2cf0 923d 9002 833e 4a16 093c
00000010: 15ae 013d 3c41 4b3e 00d6 bbbd e6d3 e13d
00000020: a381 523e e831 233e 0360 d13d dd2b b73b
00000030: 79d7 16bd d222 e23d 3e8b 903c 30f4 ee3d
00000040: cda4 213e d912 cc3c f8ca 193e 491e 253e
00000050: 6d54 393e e01b bfbd 3017 b9bd cba8 7d3d
00000060: aee6 35be 5928 2fbe 9f60 ac3c 65d4 f8bc
00000070: 0d08 493e 824f 513e ca35 40bd 8566 e33c
00000080: 8212 623c 8fdb bebd 222f dfbd d804 f3bd
00000090: 8f76 1ebf 49c3 8ebc 1636 71be 3cc6 2cbf
000000a0: eabb f13d 8fb0 b3bd fabd e0be 051f 753e
000000b0: c72e efbd bc56 36be 15f6 9b3e 3f77 193e
000000c0: abc7 503e 760f 723e 377b dd3d 53d2 183e
000000d0: 8c3e 683e 1477 f03d 9bb4 8fbe 1505 dfbd
000000e0: 2369 efbd 239c c6be 978d 31be de45 223d
000000f0: 505d 8abe 662d 8bbe db7b 2dbe ff24 eabb
00000100: 6b2a 043e 3ac3 b03d 5fda 04be f89c dcbb
00000110: 5758 e43c 6f96 4dbe 1e92 a73c 889c 17bd
00000120: b978 033f 675b a43e 8bad 1e3d 1862 773e
00000130: 9e74 623e 202e 71bc 449f 8b3e 26eb 1e3e
00000140: bd01 7f3d 0691 02bf 37f8 bcbd fbdd 6b3d
00000150: 0d09 58be 617a 823d 9756 263d 014a 3ebe
00000160: a56b 1cbc 83d7 1a3e c03e 1f3d 30fe 5b3d
00000170: 2755 d53d 0d1f 41bd c86a 3b3d 0cce 023e
00000180: 915f aabd 5364 1bbd 151a 6d3d 30ab fcbe
00000190: 572c 143e ea29 2d3e a379 39be c753 863e
000001a0: b28b 663d 150c 86bd a8dc 523e 89e1 193d
000001b0: 0d35 3c3d 8795 df3d dd09 af3d 411f 76bc
000001c0: 5a77 dc3d 9f63 713d 5f4e d7bd 3aea d63c
000001d0: fa95 47bc 9464 5cbd 16c5 d4bc b641 0abc
000001e0: 6dd1 fdbd 2f24 80bd 27e9 493c 8a45 86be
000001f0: 5c49 87bd 5992 56bc c8d6 bbbd 8e3f b53e
00000200: 3b93 753e 9e1c c13d 2b62 b33e 169f 793e
00000210: ac5a 1d3d b528 6a3e 9c86 003e e69c 30bd
00000220: bc7c ca3d e857 c93d 584c 51be b04b 07be
00000230: 689a 09bd 5c08 98be 4bff 06bd f535 aabc
00000240: a802 d7be 5175 393d ba1f d13d 2dff acbd
00000250: b3d3 ff3d 6e9d 5a3d bc52 f7bd 2960 ce3d
00000260: 5ba4 233d ef1c 71be a567 14bd 554d 13be
00000270: 9189 f03d 21eb 103e e422 cf3c e2e4 573d
00000280: 4d2b 8e3d 92ce 97bd 7174 bebd 8aa8 51bd
00000290: edd4 063c b3ef 2fbe cfcb 04bd 9193 b83d
000002a0: 25a9 4ebe 38b5 63be 599b f1bc 2145 94be
000002b0: 863a 9bbe ca72 91be 8643 17be 6a1a e4bd
000002c0: aeaf 03be 50c1 5dbe e009 02be a387 f2bd
000002d0: d83d 65bd 9f62 ea3d 6ae8 883c 5720 91be
000002e0: 85d4 39be 8629 0bbe c511 93be b7bd adbd
000002f0: 76cd efbd 392d 99be 8e7b 483c e653 8c3b
00000300: d26a cfbe 6500 d43c 738d aabc 7d78 c2be
00000310: c783 853c 1942 363d 69f0 acbe 5b5a 80bd
00000320: 95e1 91be 4b40 90be 06c5 993c 6d0d 0ebe
00000330: fa73 15bf 59a8 e4bd 0000 20bd 024b 02be
00000340: b251 483d e900 dc3c 8099 20be f275 fe3c
00000350: dc5f 173e f7ce 8fbe 0c69 31bc 4374 373e
00000360: cddf 103e 683a f73d c810 6b3d e446 6abd
00000370: 07b3 6dbd 4eca b3bd 428b e9bc 543b 6a3d
00000380: fdfc 43bd 2dfa da3d a8b0 773e a541 d93d
00000390: 8e6a 4a3e 214f 213e beb2 c0bd 5cac 0bbd
000003a0: a180 e8bd bc13 3dbd a0f0 82be f1b2 06be
000003b0: d722 31bd 5de5 d9be 498f 26be c940 873c
000003c0: 1acd 44be 6b4c f2bd 6c15 1d3e c88a 61be
000003d0: 2c40 79bd 5f09 20be 0e8a d3bd cf9b 4b3d
000003e0: 3fc4 87bd 559f 37bd f966 e13b 7172 04bc
000003f0: 63ee f63d 11c2 183e ecfa 49b9 12dc ea3c
0.10039709 0.071747154 0.25587893 0.0083671305 0.03166016 0.19849104 -0.09171677 0.110267445
0.20557265 0.15937006 0.10223391 0.0055899457 -0.036826584 0.11041798 0.01764452 0.11667669
0.15785523 0.024911331 0.15018833 0.16124834 0.18098612 -0.093314886 -0.09037626 0.06192855
-0.17763779 -0.17105235 0.021042166 -0.030374715 0.19631977 0.20440486 -0.046926297 0.027758846
0.013798358 -0.09319221 -0.10897662 -0.11866158 -0.61899656 -0.017427104 -0.23555788 -0.6748998
0.1180342 -0.0877391 -0.4389494 0.23937614 -0.11678844 -0.17806524 0.30461183 0.14986895
0.20388667 0.2363871 0.10814517 0.14923982 0.2268011 0.11741462 -0.2806748 -0.10889641
-0.11689975 -0.38790998 -0.17339168 0.03961741 -0.27024317 -0.27183074 -0.16941778 -0.0071455236
0.12906806 0.086309865 -0.12973927 -0.0067325793 0.027874155 -0.20076917 0.020455416 -0.037014514
0.51356083 0.32100984 0.038739722 0.24158514 0.22114798 -0.01472047 0.27269948 0.1551939
0.062257517 -0.5100254 -0.09227031 0.057584744 -0.21097203 0.06370998 0.040609922 -0.18582918
-0.009547149 0.15121274 0.038878202 0.05370921 0.10416632 -0.047148753 0.04575613 0.12773913
-0.08319009 -0.037937474 0.057886202 -0.49349356 0.1447004 0.1691052 -0.18112807 0.26235792
0.056285568 -0.06545273 0.20591986 0.037568603 0.04594903 0.10917192 0.08546803 -0.0150221
0.10764952 0.058932897 -0.10512995 0.026234735 -0.012181753 -0.053806856 -0.025972884 -0.008438518
-0.123934604 -0.062569015 0.012323654 -0.2622493 -0.06605789 -0.013096415 -0.09171826 0.3540005
0.23981945 0.094292864 0.35035834 0.24377093 0.03841655 0.22867091 0.1255135 -0.04311838
0.098870724 0.0983122 -0.20439279 -0.13212466 -0.03359452 -0.29693878 -0.03295831 -0.020777682
-0.41994214 0.045277897 0.102111295 -0.084471084 0.1249155 0.053372793 -0.12076327 0.10076935
0.039951663 -0.23546194 -0.036231656 -0.14384969 0.11744989 0.14152195 0.025285192 0.052708514
0.06941853 -0.07412447 -0.09299553 -0.051186122 0.008229476 -0.17181282 -0.03242093 0.09012521
-0.20181711 -0.22237098 -0.02949302 -0.2895899 -0.30318087 -0.2840789 -0.14771852 -0.111378506
-0.12859985 -0.21655774 -0.1269908 -0.11842277 -0.055967182 0.11444592 0.016712386 -0.28344986
-0.18147476 -0.13590059 -0.28724495 -0.08483451 -0.117091104 -0.29917315 0.012236489 0.0042824624
-0.40511185 0.025879094 -0.020819401 -0.3798255 0.016298188 0.04449663 -0.33777168 -0.06267234
-0.28492418 -0.28174052 0.018770706 -0.13872309 -0.5838009 -0.11164922 -0.0390625 -0.12723926
0.048906036 0.026855903 -0.15683556 0.0310621 0.14782661 -0.2808759 -0.010828268 0.17915444
0.14147873 0.12071687 0.05738905 -0.057196513 -0.058032062 -0.08778821 -0.028508786 0.057185486
-0.04784869 0.106922485 0.24188483 0.10608224 0.1976721 0.15752842 -0.09409092 -0.03409992
-0.11352659 -0.0461614 -0.25574207 -0.13154198 -0.043246116 -0.42557803 -0.16265596 0.016510384
-0.19218865 -0.11830982 0.15340203 -0.22025597 -0.060852215 -0.15628575 -0.10329066 0.049709138
-0.06629228 -0.044829685 0.0068787304 -0.008083926 0.120571874 0.1491778 -0.0001926233 0.02866939

decoder.0.bias f4 [16]
00000000: 2041 443e aebd 65be a4ba 653e 242a 2cbe
00000010: 00e1 90bd 14c4 3f3e d001 cbbd e64c 503e
00000020: f6ed 1dbd 54b5 e5bd f592 583e e699 113e
00000030: da86 e13e 6906 04be 228e fcbd 3cd9 483e
0.19165468 -0.22435638 0.22434479 -0.1681295 -0.07074165 0.18727142 -0.09912455 0.20341834
-0.038557015 -0.11216226 0.2114981 0.14218864 0.44048196 -0.1289307 -0.12331797 0.19614118

decoder.2.weight f4 [1, 16, 3, 3]
00000000: d26e 59bf 024d 01bf 1eb7 77be ecf4 f0be
00000010: ab9a 8bbe d0af 11be 4e41 b5be 9e34 89be
00000020: 2f96 bbbd 0621 113d 6c88 7b3d a79e b43e
00000030: de79 93bd 1dcb febc c2b4 ca3d aff3 33be
00000040: a8c9 4bbd c224 973e 639f b0bd 58ec 9cbd
00000050: f9e9 40bd 411a 25be e20f e3bd f62b 16be
00000060: 5058 29be 8333 0dbe e455 1ebe 2d7b 143f
00000070: a2ff 213e 51b2 803d 93fa d23e 72fe 353e
00000080: a8dd a93d 7810 913e 614a 2e3e ef76 163d
00000090: 98c4 a93e 2171 0a3e e3bf 343e 9295 263e
000000a0: 2abb 91bd cf4c a93d b5db eb3d e177 f73d
000000b0: 1bcb 553e db12 39bd e06c 6bbd 2166 a0bd
000000c0: 9621 313d 11ab eb3d b9c9 49be fb19 c9bc
000000d0: 769a f7bc ebf8 60be a319 c93d 2b50 a73d
000000e0: 4b0e 913e c6cb 103e 4bba 30ba ce1b d33e
000000f0: 7c31 553e bb21 403e 63c1 093f 36a6 babe
00000100: 6e9a 1abe ce3d 64bd afa4 80be 379d b43d
00000110: a997 6abd 8a17 2bbe 60c6 343d e513 08be
00000120: 2bdf 8c3e 9aa8 f83d 42e6 a73e 061f 7e3e
00000130: 34f1 ec3d 5bb8 4e3e 1a76 9a3d 3d81 93bc
00000140: 0a94 e83d 4fda 28bd 2992 c93d 033a e63e
00000150: a9e5 95bd c063 263d 7caa 293e da51 173b
00000160: 8339 73bc 9904 b53e 742b 15be ec9d 1abe
00000170: b39f 4cbe 59d8 53be 9087 05be 2f27 89bd
00000180: 042c f8bd 0aa0 1c3d d071 1abd c936 6fbd
00000190: 3330 17be 81dd 74be b015 c9bd cbf6 ef3d
000001a0: 13a9 edbd 488b 1dbd 1404 e7bd ff28 1dbe
000001b0: 3db4 09bd a547 65be e443 97be f303 2c3d
000001c0: 57ed 69bd e46e ccbd 717f 8a3e 1f4f b73d
000001d0: ec66 853e bc6c af3e b240 153e 8ff1 473e
000001e0: 711a 0d3e 14f1 c53d a8f4 1b3e 1612 a03e
000001f0: 59b3 283e 8e65 0d3e df87 953e 1a5d 68bd
00000200: c8db 5d3e 541c 893d d13f 2fbd 6f19 d93c
00000210: 5a5d 043e b383 51be 7226 b2bd c8b9 28be
00000220: 6da3 c9bd 07ad 50be 932d 97bd ce6f 20bd
00000230: d895 03be e4d7 28be 0f2a 6cbe 4661 89be
-0.84934723 -0.5050813 -0.24190947 -0.4706186 -0.2726644 -0.14227223 -0.35401386 -0.26797956
-0.091595046 0.035431884 0.0614094 0.35277292 -0.07200979 -0.031102711 0.09897758 -0.17573427
-0.04975286 0.2952023 -0.086241506 -0.076622665 -0.047098134 -0.16123296 -0.11087014 -0.14665207
-0.16537595 -0.13789181 -0.15462452 0.5800045 0.15820172 0.06284011 0.41206798 0.17772844
0.08294231 0.28332877 0.17020561 0.036734518 0.33157802 0.13519718 0.17651324 0.16267994
-0.07115777 0.08266603 0.11516515 0.12083412 0.2087826 -0.045183998 -0.05747688 -0.078319795
0.04324492 0.11507238 -0.19705857 -0.024548521 -0.03022502 -0.21969955 0.09819343 0.08169588
0.28331217 0.14140233 -0.0006741627 0.4123215 0.20819658 0.18762867 0.5381071 -0.36454934
-0.15097973 -0.055723004 -0.25125644 0.08819049 -0.05727354 -0.16708198 0.044134498 -0.13288839
0.27514014 0.12141533 0.3279286 0.24816522 0.11569443 0.20187514 0.07542057 -0.018005962
0.11356361 -0.04122382 0.09842331 0.44966134 -0.07319195 0.040622473 0.16568941 0.0023089559
-0.014845255 0.3535507 -0.14567357 -0.15099305 -0.19982795 -0.20687999 -0.13039994 -0.06696927
-0.1211777 0.038238563 -0.037706196 -0.058401857 -0.1476448 -0.23912622 -0.0981859 0.11716994
-0.11604514 -0.038462907 -0.11280075 -0.1534767 -0.033619154 -0.22390611 -0.29543984 0.041995954
-0.05711111 -0.09982088 0.27050355 0.08950638 0.26055086 0.34262645 0.1457546 0.19525741
0.13779618 0.09665123 0.15230048 0.31263798 0.16474666 0.13808271 0.29205224 -0.056729414
0.21665871 0.06694856 -0.04278547 0.026501385 0.12926236 -0.20460396 -0.08698739 -0.1647712
-0.09845624 -0.20378505 -0.073817395 -0.039169125 -0.1285013 -0.16488606 -0.23062919 -0.26832026
